Model: "sequential_1"
_________________________________________________________________
Layer (type)                 Output Shape              Param #   
=================================================================
conv2d_1 (Conv2D)            (None, 28, 28, 28)        784       
_________________________________________________________________
max_pooling2d_1 (MaxPooling2 (None, 14, 14, 28)        0         
_________________________________________________________________
flatten_1 (Flatten)          (None, 5488)              0         
_________________________________________________________________
dense_1 (Dense)              (None, 128)               702592    
_________________________________________________________________
dropout_1 (Dropout)          (None, 128)               0         
_________________________________________________________________
dense_2 (Dense)              (None, 2)                 258       
=================================================================
Total params: 703,634
Trainable params: 703,634
Non-trainable params: 0
_________________________________________________________________
Epoch 1/10

32/83 [==========>...................] - ETA: 2s - loss: 0.7590 - accuracy: 0.4688
83/83 [==============================] - 1s 17ms/step - loss: 1.2859 - accuracy: 0.4578
Epoch 2/10
…
